…
                logger.info(
                    "Epoch {:04d} | Time {:.3f} ({:.3f}) | NFE-F {:.1f} | NFE-B {:.1f} | "
                    "Train Acc {:.4f} | Test Acc {:.4f}".format(
                        itr // batches_per_epoch, batch_time_meter.val, batch_time_meter.avg, f_nfe_meter.avg,
                        b_nfe_meter.avg, train_acc, val_acc
                    )
                )

Namespace(network='resnet', tol=0.001, adjoint=True, downsampling_method='conv', nepochs=160, data_aug=True, lr=0.1, batch_size=128, test_batch_size=1000, save='./experiment2', debug=False, gpu=0)
Sequential(
  (0): Conv2d(1, 64, kernel_size=(3, 3), stride=(1, 1))
  (1): GroupNorm(32, 64, eps=1e-05, affine=True)
  (2): ReLU(inplace=True)
  (3): Conv2d(64, 64, kernel_size=(4, 4), stride=(2, 2), padding=(1, 1))
  (4): GroupNorm(32, 64, eps=1e-05, affine=True)
  (5): ReLU(inplace=True)
  (6): Conv2d(64, 64, kernel_size=(4, 4), stride=(2, 2), padding=(1, 1))
  (7): ResBlock(
    (norm1): GroupNorm(32, 64, eps=1e-05, affine=True)
    (relu): ReLU(inplace=True)
    (conv1): Conv2d(64, 64, kernel_size=(3, 3), stride=(1, 1), padding=(1, 1), bias=False)
    (norm2): GroupNorm(32, 64, eps=1e-05, affine=True)
    (conv2): Conv2d(64, 64, kernel_size=(3, 3), stride=(1, 1), padding=(1, 1), bias=False)
  )
  (8): ResBlock(
    (norm1): GroupNorm(32, 64, eps=1e-05, affine=True)
    (relu): ReLU(inplace=True)
    (conv1): Conv2d(64, 64, kernel_size=(3, 3), stride=(1, 1), padding=(1, 1), bias=False)
    (norm2): GroupNorm(32, 64, eps=1e-05, affine=True)
    (conv2): Conv2d(64, 64, kernel_size=(3, 3), stride=(1, 1), padding=(1, 1), bias=False)
  )
  (9): ResBlock(
    (norm1): GroupNorm(32, 64, eps=1e-05, affine=True)
    (relu): ReLU(inplace=True)
    (conv1): Conv2d(64, 64, kernel_size=(3, 3), stride=(1, 1), padding=(1, 1), bias=False)
    (norm2): GroupNorm(32, 64, eps=1e-05, affine=True)
    (conv2): Conv2d(64, 64, kernel_size=(3, 3), stride=(1, 1), padding=(1, 1), bias=False)
  )
  (10): ResBlock(
    (norm1): GroupNorm(32, 64, eps=1e-05, affine=True)
    (relu): ReLU(inplace=True)
    (conv1): Conv2d(64, 64, kernel_size=(3, 3), stride=(1, 1), padding=(1, 1), bias=False)
    (norm2): GroupNorm(32, 64, eps=1e-05, affine=True)
    (conv2): Conv2d(64, 64, kernel_size=(3, 3), stride=(1, 1), padding=(1, 1), bias=False)
  )
  (11): ResBlock(
    (norm1): GroupNorm(32, 64, eps=1e-05, affine=True)
    (relu): ReLU(inplace=True)
    (conv1): Conv2d(64, 64, kernel_size=(3, 3), stride=(1, 1), padding=(1, 1), bias=False)
    (norm2): GroupNorm(32, 64, eps=1e-05, affine=True)
    (conv2): Conv2d(64, 64, kernel_size=(3, 3), stride=(1, 1), padding=(1, 1), bias=False)
  )
  (12): ResBlock(
    (norm1): GroupNorm(32, 64, eps=1e-05, affine=True)
    (relu): ReLU(inplace=True)
    (conv1): Conv2d(64, 64, kernel_size=(3, 3), stride=(1, 1), padding=(1, 1), bias=False)
    (norm2): GroupNorm(32, 64, eps=1e-05, affine=True)
    (conv2): Conv2d(64, 64, kernel_size=(3, 3), stride=(1, 1), padding=(1, 1), bias=False)
  )
  (13): GroupNorm(32, 64, eps=1e-05, affine=True)
  (14): ReLU(inplace=True)
  (15): AdaptiveAvgPool2d(output_size=(1, 1))
  (16): Flatten()
  (17): Linear(in_features=64, out_features=10, bias=True)
)
Number of parameters: 576778
Epoch 0000 | Time 1.427 (1.427) | NFE-F 0.0 | NFE-B 0.0 | Train Acc 0.0988 | Test Acc 0.1012
Epoch 0001 | Time 0.103 (0.048) | NFE-F 0.0 | NFE-B 0.0 | Train Acc 0.9808 | Test Acc 0.9835
Epoch 0002 | Time 0.108 (0.036) | NFE-F 0.0 | NFE-B 0.0 | Train Acc 0.9879 | Test Acc 0.9895
Epoch 0003 | Time 0.126 (0.036) | NFE-F 0.0 | NFE-B 0.0 | Train Acc 0.9859 | Test Acc 0.9876
…
